Biometrics/best.ckpt (torch, 626474 bytes, 6 tensors)

encoder.0.weight f4 [16, 1, 4, 4]
0.20669325 0.0073161423 -0.0712845 -0.20786989 -0.13085842 0.22040094 0.2419374 0.099446
0.042325404 0.17242748 0.26756924 0.17157842 -0.13945031 0.22970538 0.0012506694 0.019823035
0.090638295 0.2401056 0.029074268 0.25315657 -0.2052969 0.05728867 -0.16183676 -0.16595717
-0.06646374 0.062955886 0.0863784 0.0039934553 -0.15225512 -0.17864566 0.20309168 -0.22410893
-0.21913178 0.22723827 -0.03008737 -0.005713934 0.15121253 0.09077286 0.16938114 -0.13629307
-0.23463494 0.21781978 -0.24882916 0.013093412 -0.18768413 0.13510649 0.00941508 -0.16698255
0.22488505 -0.24044932 0.005501307 0.11994925 -0.088853024 -0.021772064 0.030425113 -0.041319773
0.10283417 0.04740817 -0.08386996 0.13080241 -0.026748339 -0.13566417 -0.08382368 0.15554422
0.019299239 0.15834345 0.07350636 -0.19961129 0.0036975513 0.07997807 0.2507988 -0.19255383
0.14228222 0.039712418 0.13443013 0.24679475 -0.04758782 -0.054689217 0.09035512 0.012055367
0.033055495 0.08936556 0.15104616 0.21165465 0.17563017 0.24763419 -0.13480116 0.095207356
-0.14489107 0.10732914 0.051204283 -0.049926005 -0.07778915 0.079469964 -0.075852305 0.24147516
0.15350223 -0.08669689 -0.20212397 -0.11939774 0.15257426 0.1896806 -0.1353614 0.22804712
-0.23413442 -0.15604202 0.19637059 -0.18211336 0.24226762 0.0147995865 -0.09757232 0.06421021
0.033500455 0.22719152 -0.19537345 0.07463238 -0.24697419 -0.18872026 -0.24667229 -0.011758784
-0.0080562 -0.12469585 -0.20039028 0.24598184 -0.15040348 0.2159465 0.09964555 -0.055890374
0.048129376 -0.03744386 0.09744548 -0.10845364 0.11757553 -0.027672762 0.13366368 -0.01789567
-0.1521739 0.07491894 0.1787387 0.11953931 -0.11883331 -0.13929458 -0.07806581 -0.22561045
0.14266627 0.070195 -0.170502 0.17282663 0.15243807 -0.11092126 -0.13800961 -0.07181581
0.17552319 -0.11264813 0.19870043 0.1759359 0.11498817 0.102156766 -0.0034096427 0.24496348
-0.14277254 -0.19293049 0.20263769 -0.2163729 0.20526572 0.14186135 -0.16165122 -0.10225407
-0.107060865 0.013874406 -0.045836814 0.10376904 0.16005217 -0.0049877013 0.07590811 0.16101196
-0.19019437 0.100013606 -0.11276158 -0.11955517 -0.21297751 -0.081656694 -0.0071763177 0.2243534
-0.24753633 -0.24193415 -0.1060647 0.043389436 -0.010181318 -0.18231723 -0.13996457 0.0758588
-0.035248607 -0.1553992 -0.23093405 -0.004340887 -0.050587326 -0.19680685 -0.08062804 -0.043078125
-0.20983139 0.09546855 0.0647566 -0.11571762 -0.2018973 0.068989605 0.023603916 0.03544447
0.09192769 -0.009405837 -0.19244151 0.05381926 0.1971071 -0.23653154 -0.23159224 0.21201581
0.22556 0.23992829 0.07138943 -0.0045122155 0.0924783 0.037901048 -0.15697975 -0.035366476
0.2112099 -0.13624074 0.094544016 0.07743517 0.20295992 -0.118383154 0.09618211 0.07349879
0.08781944 0.23958533 0.061404616 0.058921956 -0.15267467 0.07519892 -0.13623981 -0.15604928
0.09304833 -0.18191387 0.08683785 -0.15989715 -0.23418018 0.011402226 0.02697275 0.19597271
-0.14463766 0.053426508 -0.12182537 -0.053214412 0.13388525 0.053722475 0.070154004 -0.09967575
00000000: 65a7 533e 40bc ef3b 9cfd 91bd d8db 54be
00000010: c0ff 05be c9b0 613e 70be 773e 58aa cb3d
00000020: 675d 2d3d d490 303e d6fe 883e 41b2 2f3e
00000030: 10cc 0ebe e337 6b3e 80ed a33a eb63 a23c
00000040: 92a0 b93d 3ede 753e 292d ee3c bd9d 813e
00000050: 5a39 52be 86a7 6a3d 89b8 25be adf0 29be
00000060: 241e 88bd 04ef 803d 29e7 b03d 88db 823b
00000070: c4e8 1bbe e3ee 36be 44f7 4f3e d07c 65be
00000080: 1564 60be 26b1 683e ca79 f6bc f43b bbbb
00000090: 75d7 1a3e 1fe7 b93d 4072 2d3e 6990 0bbe
000000a0: 2444 70be 260c 5f3e 12cd 7ebe c085 563c
000000b0: 4530 40be 5b59 0a3e b541 1a3c 79fd 2abe
000000c0: 4448 663e 5938 76be 4f44 b43b f4a7 f53d
000000d0: 93f8 b5bd 545b b2bc 163e f93c ec3e 29bd
000000e0: b99a d23d 122f 423d 03c4 abbd 11f1 053e
000000f0: 551f dbbc 8ceb 0abe c0ab abbd fc46 1f3e
00000100: 7019 9e3c c924 223e 818a 963d e766 4cbe
00000110: 9e52 723b 8bcb a33d b368 803e d52c 45be
00000120: 6eb2 113e 7da9 223d 0da8 093e c3b7 7c3e
00000130: 72eb 42bd cd01 60bd 1b0c b93d e083 453c
00000140: 3365 073d 4a05 b73d d8ab 1a3e ffbb 583e
00000150: 65d8 333e d193 7d3e 5109 0abe 13fc c23d
00000160: 535e 14be 61cf db3d 95bb 513d 367f 4cbd
00000170: eb4f 9fbd 26c1 a23d 7458 9bbd 4445 773e
00000180: b02f 1d3e 248e b1bd 96f9 4ebe cd86 f4bd
00000190: 6d3c 1c3e a23b 423e 2e9c 0abe 2f85 693e
000001a0: efc0 6fbe 7bc9 1fbe 5f15 493e ed7b 3abe
000001b0: 0115 783e f779 723c ffd3 c7bd a580 833d
000001c0: c637 093d e5a4 683e fa0f 48be dcd8 983d
000001d0: cde6 7cbe e23f 41be a997 7cbe eaa7 40bc
000001e0: 27fe 03bc 8a60 ffbd 1c33 4dbe aae2 7b3e
000001f0: 5f03 1abe 1421 5d3e f712 cc3d 4eed 64bd
00000200: 4f23 453d bc5e 19bd 7f91 c73d f11c debd
00000210: 71cb f03d fdb1 e2bc 22df 083e f199 92bc
00000220: 7ad3 1bbe 1a6f 993d 4707 373e 07d1 f43d
00000230: e15e f3bd 3da3 0ebe f8e0 9fbd 6d06 67be
00000240: 1b17 123e 65c2 8f3d 1498 2ebe 77f9 303e
00000250: ba18 1c3e b02a e3bd 6452 0dbe 2b14 93bd
00000260: 5abc 333e 10b4 e6bd 2078 4b3e 8a28 343e
00000270: eb7e eb3d 9137 d13d 5074 5fbb b5d7 7a3e
00000280: f732 12be 928f 45be 4180 4f3e dc90 5dbe
00000290: 2d31 523e 1a44 113e e687 25be 956a d1bd
000002a0: ba42 dbbd 7a51 633c 62bf 3bbd dd84 d43d
000002b0: b7e4 233e df6f a3bb b675 9b3d 52e0 243e
000002c0: 50c2 42be efd3 cc3d 8bef e6bd 57d9 f4bd
000002d0: c716 5abe a03b a7bd 5127 ebbb e6bc 653e
000002e0: 2a7a 7dbe 96bd 77be 7338 d9bd 1fb9 313d
000002f0: 8bcf 26bc 5eb1 3abe df52 0fbe dc5b 9b3d
00000300: d860 10bd f820 1fbe fa79 6cbe 003e 8ebb
00000310: a834 4fbd bc87 49be 5020 a5bd b072 30bd
00000320: 0ade 56be 0485 c33d 1c9f 843d 5cfd ecbd
00000330: 2abe 4ebe 6c4a 8d3d 005d c13c 382e 113d
00000340: 9644 bc3d f11a 1abc 630f 45be 9671 5c3d
00000350: 72d6 493e 5335 72be 8426 6dbe ac1a 593e
00000360: 33f9 663e c3af 753e 9f34 923d 35db 93bb
00000370: 4365 bd3d 213e 1b3d 4dbf 20be 70dc 10bd
00000380: 6847 583e b182 0bbe 4ba0 c13d 5596 9e3d
00000390: bad4 4f3e de72 f2bd 20fb c43d 8986 963d
000003a0: aeda b33d db55 753e 6883 7b3d 2658 713d
000003b0: c056 1cbe e401 9a3d 7382 0bbe 62cb 1fbe
000003c0: 1f90 be3d a147 3abe 0bd8 b13d 14bc 23be
000003d0: eecc 6fbe 67d0 3a3c f5f5 dc3c 12ad 483e
000003e0: e51b 14be c1d5 5a3d 947f f9bd 5bf7 59bd
000003f0: 3719 093e 190c 5c3d e7ac 8f3d cd22 ccbd

encoder.0.bias f4 [16]
-0.22285406 -0.0816117 0.15100347 -0.052094262 0.17695697 0.14120579 -0.16461484 0.1155524
-0.11535508 0.040643506 -0.041515354 0.2365767 -0.18957028 0.22324018 0.2493416 0.13904184
00000000: db33 64be 0924 a7bd a7a0 1a3e cb60 55bd
00000010: 3534 353e 4098 103e cb90 28be bda6 ec3d
00000020: 493f ecbd ce79 263d 010c 2abd 2a41 723e
00000030: b61e 42be 1399 643e 6853 7f3e fc60 0e3e

encoder.3.weight f4 [32, 16, 4, 4]
-0.009863559 0.0634262 0.01582717 -0.00793128 0.03168574 -0.029040122 0.00020490921 -0.051402453
0.03408281 0.03493441 0.023706233 -0.022908086 0.034031577 0.06844124 0.016036272 0.07499823
-0.055540875 0.013058122 -0.06272902 0.0336503 0.01329782 0.050933097 0.063628525 0.022033175
0.03863416 0.076629445 0.055424117 -0.03849375 0.02509241 0.060973294 0.04740745 0.00047894256
0.045786887 -0.02317477 -0.012894535 -0.016374465 -0.062917694 0.057224017 -0.010702499 -0.05469348
0.0076815262 0.041576438 -0.007784264 -0.07123542 0.041618437 -0.019767815 -0.0015419228 0.016456602
-0.030617671 0.057482917 -0.048197728 0.041513845 0.020208025 0.031059159 -0.015336015 -0.022483116
-0.013558512 -0.009621418 0.02946056 0.005647668 -0.026241286 0.021497771 -0.022820214 -0.0063620945
-0.02572733 -0.053250585 -0.040715724 -0.022103546 0.062460992 -0.04360875 -0.030368187 -0.059672363
-0.053498004 0.075417064 -0.010801826 0.03390936 -0.0114724655 0.044403344 0.034489475 0.010500267
-0.03932421 -0.017193034 -0.03228095 -0.033071097 0.035892446 0.025454516 -7.297496e-05 0.016652983
0.07246207 0.030094687 0.03240671 -0.021916714 -0.008857582 0.01004164 0.042304114 0.06813749
-0.020844778 0.04528833 -0.045125335 0.007277502 -0.02225986 -0.0066318936 -0.052162934 -0.06711033
-0.013590813 0.004441056 0.056898016 -0.07077208 0.01025352 0.051759955 -0.02719719 -0.014012242
0.0191004 -0.0007841046 -0.008153718 -0.04477789 0.050161943 0.05952426 0.005057123 -0.00047890772
-0.047624454 -0.04393247 -0.03276541 -0.016355023 0.071482986 -0.010779283 0.0063847965 0.0017561344
0.012547162 -0.051424466 -0.029743142 0.011565785 -0.0046754996 -0.048153747 0.011630061 -0.038059294
-0.051031422 -0.042391844 -0.011332602 0.028324787 0.027213905 0.01139315 0.08255932 -0.04537756
0.0040642247 0.057238404 0.044293087 0.05275964 -0.01290157 -0.004945464 -0.0017512377 -0.048910283
-0.031533238 0.0742695 -0.028387146 0.07540862 -0.057973295 0.05548612 0.017140485 0.034881562
0.018212698 -0.04201423 -0.0013619877 0.036774106 0.027886372 -0.013188188 0.049590427 -0.021043407
0.057026837 0.06839501 0.03535746 0.0015191382 0.012364066 -0.05177844 -0.03432701 0.018557815
-0.030152816 0.014192168 0.002759345 0.057790898 0.02415552 -0.01118897 0.05233266 0.032114875
0.055744402 0.02857562 -0.050182894 0.0051919757 0.03526625 0.0048131663 0.051460657 0.01138522
0.06223002 -0.051251546 0.02058009 0.04154302 -0.037125297 0.004353538 -0.040172376 0.060062423
-0.032434598 0.04634627 -0.022030711 0.03744279 -0.013041817 -0.057789885 0.051858276 -0.025790595
-0.042314216 -0.023314606 -0.066524036 -0.0060188365 -0.051600948 0.009011513 -0.008354746 0.024886763
-0.010014067 -0.0023869066 0.0039348896 0.011176434 -0.02912714 -0.043852326 0.010087196 0.05111707
-0.05907407 0.045296673 0.007951478 0.040589705 -0.027372045 -0.025175447 -0.016791984 0.044597894
0.047104802 -0.005461909 0.073184 -0.040735874 0.06473196 0.004866889 0.0272778 0.024221838
-0.006521929 -0.059778113 -0.046979673 -0.011126397 -0.040585708 -0.030803315 -0.016797625 0.0067275846
-0.027006606 -0.019426713 -0.052852727 -0.047987524 -0.05332345 0.025654372 -0.073794305 0.040003587
00000000: c49a 21bc 98e5 813d fba7 813c 33f2 01bc
00000010: e8c8 013d 8de5 edbc e6dc 5639 618b 52bd
00000020: 6b9a 0b3d 6217 0f3d 9333 c23c bda9 bbbc
00000030: b264 0b3d ec2a 8c3d 805e 833c ac98 993d
00000040: d47e 63bd bcf1 553c 1378 80bd e6d4 093d
00000050: 1adf 593c 399f 503d ac4f 823d eb7e b43c
00000060: da3e 1e3d e6ef 9c3d 6604 633d 9fab 1dbd
00000070: 998e cd3c 22bf 793d 502e 423d 951a fb39
00000080: 088b 3b3d 04d9 bdbc 9a43 53bc be23 86bc
00000090: feda 80bd bb63 6a3d 8959 2fbc 4506 60bd
000000a0: 50b5 fb3b 0e4c 2a3d 2413 ffbb e0e3 91bd
000000b0: 1878 2a3d 1df0 a1bc 581a caba ffcf 863c
000000c0: e9d1 fabc 3573 6b3d fb6a 45bd 6c0a 2a3d
000000d0: 4d8b a53c c76f fe3c e943 7bbc 832e b8bc
000000e0: 8524 5ebc 27a3 1dbc 4657 f13c 1310 b93b
000000f0: f7f7 d6bc 181c b03c 75f1 babc 1e79 d0bb
00000100: 1fc2 d2bc 491d 5abd 88c5 26bd 7f12 b5bc
00000110: 19d7 7f3d 179f 32bd b4c6 f8bc 026b 74bd
00000120: b920 5bbd 4374 9a3d 24fa 30bc 8be4 0a3d
00000130: 02f7 3bbc 48e0 353d d644 0d3d 5009 2c3c
00000140: 6c12 21bd 68d8 8cbc 0839 04bd 8f75 07bd
00000150: f503 133d fd85 d03c 220a 99b8 d66b 883c
00000160: fe66 943d 2289 f63c e6bc 043d ae8a b3bc
00000170: 641f 11bc b185 243c 1447 2d3d ab8b 8b3d
00000180: abc2 aabc 4280 393d 58d5 38bd 1d78 ee3b
00000190: 4f5a b6bc 5b50 d9bb cda8 55bd 2471 89bd
000001a0: 00ac 5ebc 4786 913b e50d 693d f4f0 90bd
000001b0: 61fe 273c 3f02 543d a4cc debc 9a93 65bc
000001c0: 7178 9c3c 5e8c 4dba 2c97 05bc 0569 37bd
000001d0: 9c76 4d3d b6cf 733d 39b6 a53b e815 fbb9
000001e0: dc11 43bd 89f2 33bd 0635 06bd f8fa 85bc
000001f0: ac65 923d 979b 30bc 8e37 d13b 182e e63a
00000200: 9d92 4d3c 76a2 52bd e4a7 f3bc 6b7e 3d3c
00000210: ef34 99bb dd3c 45bd 038c 3e3c 10e4 1bbd
00000220: 5306 51bd 12a3 2dbd 61ac 39bc 6209 e83c
00000230: b2ef de3c 56aa 3a3c dc14 a93d d2dd 39bd
00000240: 302d 853b d172 6a3d ab6c 353d 7e1a 583d
00000250: 1b61 53bc 8f0d a2bb c989 e5ba 2656 48bd
00000260: ff28 01bd 9c1a 983d 298c e8bc d66f 9a3d
00000270: 6875 6dbd 6a45 633d 346a 8c3c f8df 0e3d
00000280: cc32 953c 1d17 2cbd b984 b2ba 72a0 163d
00000290: f671 e43c 4513 58bc 551f 4b3d 3963 acbc
000002a0: f994 693d af12 8c3d fcd2 103d d21d c73a
000002b0: a792 4a3c a115 54bd 7b9a 0cbd 8f06 983c
000002c0: 0a03 f7bc 4486 683c 21d6 343b 26b6 6c3d
000002d0: cce1 c53c f151 37bc c55a 563d e38a 033d
000002e0: 3e54 643d 6b17 ea3c 948c 4dbd 7321 aa3b
000002f0: 5873 103d c4b7 9d3b 69c8 523d 1389 3a3c
00000300: e8e4 7e3d 24ed 51bd 9497 a83c 0429 2a3d
00000310: b210 18bd 20a8 8e3b ca8b 24bd 0404 763d
00000320: 24da 04bd 96d5 3d3d c079 b4bc 9c5d 193d
00000330: 58ad 55bc 16b5 6cbd 5869 543d cc46 d3bc
00000340: ac51 2dbd 46fe bebc c13d 88bd a939 c5bb
00000350: 845b 53bd 06a5 133c 58e2 08bc 53df cb3c
00000360: 0b12 24bc a66d 1cbb 3ff0 803b 5d1d 373c
00000370: 0a9c eebc 7f9e 33bd c444 253c 2260 513d
00000380: a7f7 71bd 0189 393d ea46 023c 6441 263d
00000390: 573b e0bc bd3c cebc 588f 89bc 48ac 363d
000003a0: f7f0 403d d0f9 b2bb 7ee1 953d a9da 26bd
000003b0: 3192 843d 6d7a 9f3b b175 df3c e06c c63c
000003c0: e8b5 d5bb e5d9 74bd c26d 40bd 7e4b 36bc
000003d0: 333d 26bd 3c57 fcbc 2c9b 89bc 1273 dc3b
000003e0: f53c ddbc c524 9fbc 1a7c 58bd 918e 44bd
000003f0: b169 5abd 1e29 d23c 7821 97bd cdda 233d

encoder.3.bias f4 [32]
0.039353725 -0.021623954 0.011346243 -0.045231067 0.03999191 -0.00917792 -0.028642416 -0.014313854
0.0476836 -0.033799108 0.007043571 -0.020754747 0.047082305 0.014384438 0.04783833 0.012539348
-0.004415099 0.03718034 0.007809641 0.0073609427 0.038473256 -0.007421982 -0.007536142 -0.0131782275
0.033574596 0.017528404 0.0051835254 0.021314519 0.010102944 0.059141424 -0.010263955 -0.002987198
00000000: 5f31 213d b824 b1bc 98e5 393c 3644 39bd
00000010: 8fce 233d fd5e 16bc 80a3 eabc a884 6abc
00000020: e14f 433d ef70 0abd c2cd e63b dc05 aabc
00000030: 60d9 403d b5ac 6b3c 20f2 433d d671 4d3c
00000040: 89ac 90bb 6a4a 183d 04e8 ff3b 1034 f13b
00000050: 2296 1d3d 1934 f3bb bef1 f6bb 7ee9 57bc
00000060: 8485 093d ba97 8f3c 90da a93b c99b ae3c
00000070: d286 253c 473e 723d 262a 28bc dec4 43bb

linear.0.weight f4 [64, 2304]
0.011137284 -0.011375486 0.017637132 -0.007951681 0.019479834 -0.010301475 0.026752666 0.0061118156
-0.012056231 -0.010882625 0.017873062 -0.017206779 -0.0026512123 0.005973777 -0.0005074089 0.018528413
0.0004316276 -0.01272365 -0.021401552 0.0022336573 0.020965673 -0.0068137296 -0.019497057 0.00393143
0.015839526 -0.0023299304 0.024880808 -0.0085943 0.011802489 0.012989116 0.016087638 -0.008297522
0.005988189 -0.020574035 -0.0050020497 0.0023211113 0.015241977 0.026540585 -0.0017479875 -0.012207296
-0.015669733 0.0011367329 0.010871178 -0.017300172 -0.014652005 0.023817392 -0.01083539 -0.019872801
-0.021193773 0.014981818 0.01434676 -0.0013091239 0.00065658207 0.012454956 -0.007870894 0.024305642
0.003470694 0.022847146 0.0235037 0.0045315614 0.022141201 0.01749879 -0.010242152 -0.016018612
-0.013539236 -0.0065479684 0.010988361 0.00459305 0.007968204 -0.020856004 0.0019461327 0.015573132
0.010577555 0.016807577 0.006910521 -0.009658706 0.015393416 -0.014054639 0.019754386 0.022272585
0.006176741 -0.014768381 -0.021217462 -0.020061143 0.013423374 -0.006860397 0.019809615 0.020435669
0.017093342 0.0039597955 0.005969501 -0.009718124 -0.009442262 -0.0074932827 -0.010867061 -0.02312993
0.011333097 0.006021207 0.0036994307 -0.020690806 -0.0010380752 0.014021118 -0.0061114086 -0.018658165
0.009779426 0.008314235 -0.0017425002 0.010346557 0.014612501 0.025820874 0.008581348 0.0102088675
-0.00078331877 0.021546612 0.0012527617 -0.0101482 -0.026517328 -0.004892464 0.007703554 0.016446915
-0.008718658 0.000103694474 0.023085294 0.023521591 0.008815964 0.0095895715 0.0052970657 -0.012067187
-0.005844703 0.0017947374 -0.020225752 0.011960307 0.0011776021 0.01835624 0.0072173984 -0.0011002288
0.015549706 0.015281482 -0.0048248335 -0.006239564 -0.0147851575 0.016009279 0.015263909 0.028638793
0.014013785 0.0089947935 -0.014001447 0.0033695973 0.011856286 0.019560482 -0.0026160106 0.011348277
0.016401626 -0.0026821494 0.010333573 -0.007757957 0.013519215 0.0011932527 -0.0073471144 -0.0070658475
0.000898021 0.017815005 0.00925683 0.0055102482 -0.0028518166 -0.017917324 -0.016422682 0.019617438
0.020550694 -0.0049226135 0.019521657 -0.006822072 0.0070445016 -0.010302424 -0.016566742 0.0067372
-0.020099876 0.0010200193 0.0100800395 0.011669941 0.013634212 0.020540169 -0.0035171683 -0.0026143417
-0.0095063895 -0.008889492 0.00764482 -0.014891419 -0.00533323 0.0031051487 -0.0017666444 0.019364437
0.015329108 -0.01957885 0.01836831 0.010642476 -0.004385866 0.0044612885 0.008871372 0.0058851168
-0.017993122 0.013718493 0.005171433 -0.0025703933 -0.0092644375 0.00029630464 -0.007990919 -0.0004893368
-0.0016134878 0.015744507 -0.005052477 0.01485285 -0.014063388 -0.0016289055 -0.019699326 -0.019732568
0.0037046017 0.015640406 0.0004678853 -0.006164557 -0.014654807 0.014717654 -0.00476943 0.008384858
-0.011491442 0.024084743 0.009531722 0.0053735785 -0.0038305307 -0.014196292 0.005213482 -0.006998991
-0.005553316 0.009845592 0.017338628 0.010318799 -0.0037056115 -0.020803584 0.00877259 -0.0016636538
-0.011004042 0.01478527 -0.0022834488 -0.0085297935 0.013364496 -0.0012578918 0.0034158777 0.0119995065
-0.008444832 -0.0032967858 0.017351273 -0.02636936 0.02306988 0.0041103573 0.010684701 -0.0045655495
00000000: 2879 363c 3f60 3abc bf7b 903c c447 02bc
00000010: 2c94 9f3c 85c7 28bc 6828 db3c a045 c83b
00000020: 7f87 45bc 0a4d 32bc 876a 923c 3bf5 8cbc
00000030: f6bf 2dbb acbf c33b a303 05ba e6c8 973c
00000040: 134c e239 db76 50bc 4f52 afbc 8d62 123b
00000050: 34c0 ab3c b545 dfbb 4bb8 9fbc 3ad3 803b
00000060: e5c1 813c bfb1 18bb d6d2 cb3c 1bcf 0cbc
00000070: 3a5f 413c 4dd0 543c 39ca 833c 54f2 07bc
00000080: 9238 c43b e18a a8bc 3ce8 a3bb c91d 183b
00000090: 7cb9 793c a46b d93c ba1c e5ba 1c01 48bc
000000a0: d05d 80bc 6dfe 943a 061d 323c 17b9 8dbc
000000b0: f70e 70bc b11c c33c eb86 31bc 49cc a2bc
000000c0: 909e adbc 4d76 753c ac0e 6b3c e996 abba
000000d0: 7a1e 2c3a df0f 4c3c ecf4 00bc a01c c73c
000000e0: 9574 633b f029 bb3c d58a c03c 7e7d 943b
000000f0: 7761 b53c 9f59 8f3c b3ce 27bc 7739 83bc
00000100: acd3 5dbc 5790 d6bb 8708 343c 4c81 963b
00000110: 128d 023c 36da aabc 6115 ff3a 7326 7f3c
00000120: 7b4d 2d3c 0bb0 893c a771 e23b 8d3f 1ebc
00000130: ab34 7c3c 6e45 66bc f3d3 a13c ff74 b63c
00000140: 4266 ca3b 14f7 71bc 3ed0 adbc 4457 a4bc
00000150: b6ed 5b3c 2ecd e0bb c647 a23c b468 a73c
00000160: 5607 8c3c 2cc1 813b ce9b c33b c438 1fbc
00000170: b8b3 1abc 368a f5bb c20b 32bc fb7a bdbc
00000180: 74ae 393c 8c4d c53b 2672 723b c47f a9bc
00000190: 0610 88ba d5b8 653c 3642 c8bb 02d9 98bc
000001a0: e339 203c 6e38 083c 9b64 e4ba 9b84 293c
000001b0: 4569 6f3c 4c86 d33c c898 0c3c 1843 273c
000001c0: a257 4dba 8582 b03c b533 a43a a344 26bc
000001d0: de3a d9bc f650 a0bb 186e fc3b aebb 863c
000001e0: b4d8 0ebc 8c76 d938 5f1d bd3c 5ab0 c03c
000001f0: d570 103c 941d 1d3c 0293 ad3b 73b5 45bc
00000200: ec84 bfbb 653d eb3a 7ab0 a5bc 2af5 433c
00000210: c559 9a3a d35f 963c ed7f ec3b 8d35 90ba
00000220: 32c4 7e3c 2e5f 7a3c a319 9ebb 4275 ccbb
00000230: 723d 72bc e425 833c 7915 7a3c e79b ea3c
00000240: 139a 653c e65e 133c 5366 65bc 76d4 5c3b
00000250: de40 423c 4e3d a03c 6071 2bbb 20ee 393c
00000260: b45c 863c 00c7 2fbb 264e 293c 7636 febb
00000270: b37f 5d3c eb66 9c3a 10c0 f0bb a088 e7bb
00000280: 2b69 6b3a c6f0 913c f6a9 173c 508f b43b
00000290: 8be5 3abb 5ac7 92bc dc88 86bc c0b4 a03c
000002a0: ee59 a83c e04d a1bb e2eb 9f3c b08b dfbb
000002b0: 90d5 e63b 80cb 28bc fab6 87bc bbc3 dc3b
000002c0: 7fa8 a4bc 2bb2 853a c026 253c 4833 3f3c
000002d0: 0862 5f3c db43 a83c 4b80 66bb 6055 2bbb
000002e0: b0c0 1bbc 3ba5 11bc 6681 fa3b 23fb 73bc
000002f0: 60c2 aebb c07f 4b3b c08e e7ba 2ba2 9e3c
00000300: f026 7b3c d363 a0bc 2379 963c c85d 2e3c
00000310: 50b7 8fbb 0030 923b 3b59 113c f0d7 c03b
00000320: 5066 93bc 88c3 603c 2075 a93b 0b74 28bb
00000330: dec9 17bc 5659 9b39 58ec 02bc d646 00ba
00000340: ab7b d3ba a0fa 803c 408f a5bb 5e59 733c
00000350: 206a 66bc 0081 d5ba 7b60 a1bc 32a6 a1bc
00000360: e7c8 723b 4f20 803c 804e f539 0d00 cabb
00000370: b71a 70bc 5122 713c e148 9cbb a560 093c
00000380: 9a46 3cbc 5e4d c53c f12a 1c3c d814 b03b
00000390: a409 7bbb 9097 68bc dbd5 aa3b cb57 e5bb
000003a0: 97f8 b5bb 684f 213c bd09 8e3c 2e10 293c
000003b0: d8d9 72bb 476c aabc e9ba 0f3c f50e daba
000003c0: 4c4a 34bc eb3d 723c eaa5 15bb 8cc0 0bbc
000003d0: c2f6 5a3c d8df a4ba ebdc 5f3b 9499 443c
000003e0: 315c 0abc e30e 58bb 4224 8e3c 8e04 d8bc
000003f0: 0cfd bc3c 2db0 863b e20e 2f3c 9b9a 95bb

linear.0.bias f4 [64]
0.015418223 -0.0054175803 0.0041013425 -0.004636396 0.01151712 -0.0117571615 0.00917133 0.0021247256
-0.008161669 -0.00020000906 0.018726628 0.0107305525 -0.015828604 0.0053874482 0.0065775285 -0.0016321435
0.0047658714 -0.013401033 0.018383775 3.7906946e-05 -0.012066295 0.015328229 0.0028186527 0.018563554
-0.00038320283 0.0072215353 -0.009546398 0.017012695 0.018131413 -0.0045532705 0.0018917964 -0.014791255
-0.01114295 0.011135828 -0.004267969 0.012485024 0.010891958 0.013734334 -0.00507577 0.02024386
-0.0074341265 0.01237513 0.010607784 -0.014279821 -0.0069696554 -0.0021481542 -0.009902785 0.019647297
-0.008596724 0.0044207866 0.020196002 0.0061268974 0.005019257 -0.002774517 0.0025750373 -0.0109650055
0.016067956 0.0058892663 0.0043281745 -0.007781893 0.014485457 0.012252076 -0.020410584 -0.01378256
00000000: b79c 7c3c f585 b1bb 8e64 863b e9ec 97bb
00000010: 4db2 3c3c 1ca1 40bc 5943 163c fb3e 0b3b
00000020: 85b8 05bc 86b9 51b9 9668 993c 33cf 2f3c
00000030: fdaa 81bc 3189 b03b 4f88 d73b a6ed d5ba
00000040: 072b 9c3b 0290 5bbc 9299 963c 46fe 1e38
00000050: b6b1 45bc 4123 7b3c 25b9 383b 9812 983c
00000060: 9de8 c8b9 a1a2 ec3b 7f68 1cbc 355e 8b3c
00000070: 5488 943c 9a33 95bb 27f6 f73a 0557 72bc
00000080: eb90 36bc 0c73 363c 52da 8bbb fc8d 4c3c
00000090: 2f74 323c f905 613c a552 a6bb 74d6 a53c
000000a0: f999 f3bb 0fc1 4a3c 45cc 2d3c e9f5 69bc
000000b0: b561 e4bb 0cc8 0cbb 4a3f 22bc 5ef3 a03c
000000c0: 46d9 0cbc 3fdc 903b 1672 a53c 24c4 c83b
000000d0: 9478 a43b acd4 35bb f5c1 283b 91a6 33bc
000000e0: f2a0 833c bffa c03b 5cd3 8d3b 40ff febb
000000f0: 6954 6d3c eebc 483c 1934 a7bc 3fd0 61bc
