Biometrics/best_custom.ckpt (torch, 626928 bytes, 6 tensors)

encoder.0.weight f4 [16, 1, 4, 4]
00000000: 5325 76be c457 523e 40af 08be 3ab8 b83d
00000010: 9a90 41be 48f0 6ebe 3eff 9b3d 974f 7ebe
00000020: 93c0 01be f056 d6bd dd66 6f3e 063c 333e
00000030: cb85 26bd 4ac5 f7bd e78a 8abb a626 b73d
00000040: a0a4 1f3e 7a10 8d3e 0f01 8b3e 6b3d c43d
00000050: dc75 4ebd 6d00 5c3e 87ad cf3c 432d 753e
00000060: 1560 dfbd 61a2 713d fcb3 66be d4e2 a7bc
00000070: 7304 8b3e fbff fb3d 9a79 d5bc 2fa3 283e
00000080: 7215 863e a145 75be e2ac 143d e6ae 59be
00000090: 691c 863e dd1c 4abe b6c8 bcbc f627 44bd
000000a0: 0b88 413e ff23 3a3e e48c 29be 897d 76bd
000000b0: 89fa 5cbd 8d77 4ebd 717f 5f3e 9d2a 25bd
000000c0: 289e 72be 8c47 793c 4f27 72be 7498 19bd
000000d0: b04c 60be 53a9 2fbe ad57 74be 7fd3 c3bd
000000e0: 5e6c 0c3e d506 6bbe 4e81 3abe 2ab6 233e
000000f0: d586 5abe 3c7f 783e 9e26 783d 6a45 753e
00000100: 97fc 883e 2b69 2abb fb9a d4bd d648 cebd
00000110: c892 363e 1d69 143e dd7c 0e3e 47c9 ffbd
00000120: b248 443e dff4 173e a042 a13d 81c6 8c3e
00000130: dd8e 07be 2d14 723e 15dc 643e baa5 04be
00000140: 3ea4 373e daa2 75bd 0613 c53d 8b94 893e
00000150: 1db5 a3bd dcec 6c3e 5ba7 793e ad12 b6bd
00000160: c3a3 abbb fcc9 3b3e e2f8 37bd 1a6e 423e
00000170: 777a 023e 76ab 72bd d10b 5a3e b22e 6f3e
00000180: c861 7d3e d735 c43b 715f 7cbd f222 793e
00000190: 969b 123e 9d37 96ba e322 54bd 287f 973d
000001a0: d91d babd 92b2 b63c fd58 5abe 3ff8 59be
000001b0: 0d98 03be 09a8 43be 592b 08bd 450a 193e
000001c0: a040 5cbe d8b6 cf3d ff66 143d 023f 62be
000001d0: 438e 66be 1e63 37be 42cb 22be 2518 363e
000001e0: b887 cdbd 026c 38be 478c aabc 25fd 13be
000001f0: a8b0 f33d c202 e4bb b895 d4bd c3a5 48be
00000200: 7133 22bd 37b6 c53d 1c56 8a3e bcd6 123e
00000210: 8162 793e c683 4ebe 944c 203e 770f 893e
00000220: bf39 6c3e a4ed 163d e542 473e f919 c53d
00000230: 05e9 373e d61b c8bd 3431 5d3e 462e 46be
00000240: 307b adbd 6f73 90bd 773f 10be a065 e8bd
00000250: 8c48 49be 470d c5bd 32e1 65be 1f5b cd3d
00000260: b5d3 5e3e c1be 6c3e e0eb b63d 6408 16be
00000270: ce23 813e 7a87 033e 39ec 783e b681 41be
00000280: c043 1f3e e61a 0d3e 69fa 2c3d 3161 473e
00000290: 5b5e 8d3e 7447 3bbd 89a1 2dbe ab35 e5bd
000002a0: e234 36be 7907 a0bd 536d 52be 5518 c33d
000002b0: 2189 65be 4b17 71be 31a4 873d 2c40 68be
000002c0: 9b76 92bd 7d66 58be ebd9 3bbe 652a 25be
000002d0: 83a6 443e e1c9 bdbd 9a9f c5bd efd8 e13d
000002e0: ab6f bbbd 1893 813e 385d 1abe dcb2 31be
000002f0: 2255 a33d 6218 61be e7c3 f6bd 5645 8abd
00000300: ae8b 893e 8ed4 833d d73e 353e 24ee 91bd
00000310: 0c1d 1b3e f384 ddbc 7847 123e 3ebf 52bd
00000320: e797 2ebe 1e05 5bbe 0782 5c3e 31eb 813e
00000330: 4fcf 59be 5eeb 83bd fb5d 313e 8834 683e
00000340: 724c d63d 26ff 2e3e fa03 20be dc35 203e
00000350: 00f9 aabd 5f1d 7d3d a6c9 2abe 4dbf 353e
00000360: 4fea 44be ae26 123e feb0 4cbe beae 77bc
00000370: 75f6 b1bd eb97 1abd e840 7dbd 0a13 f63d
00000380: 3858 4fbe 3336 3abe 102c 193b 2183 d53d
00000390: d0f6 b5bd 948b 793e 3ba0 2a3e 27ec 833e
000003a0: 2b13 6d3e 4cbf 3a3e 0295 6e3d 2ae7 88bd
000003b0: c915 ae3d 0a4b 573e c8d0 6d3e 49cb c43d
000003c0: 6ee8 d83d 6893 633d 9132 8d3e 90a5 5e3e
000003d0: fcc2 7a3e 3568 693e f205 ecbd bf3a 8b3e
000003e0: 8c8e 6b3e e50b 10be e94c f73b 4c1d 92bc
000003f0: a94b a83d f6df 8d3e 71d6 3b3e 3030 c4bb
-0.24037676 0.20541292 -0.13348103 0.090195134 -0.18902817 -0.23333848 0.07617043 -0.24835049
-0.12671117 -0.10465801 0.23379083 0.17503366 -0.04065494 -0.12098177 -0.004227984 0.089429185
0.15590143 0.27551633 0.27149245 0.09582027 -0.05040537 0.21484537 0.025351299 0.23943047
-0.10906998 0.058992747 -0.22529596 -0.020493902 0.27151832 0.12304684 -0.02605896 0.164685
0.26188236 -0.23952343 0.036297686 -0.21258125 0.2619355 -0.19737573 -0.023044925 -0.047889672
0.18899553 0.18177794 -0.16557652 -0.060178313 -0.053949866 -0.05040698 0.21825959 -0.040323842
-0.23693144 0.015214812 -0.23647808 -0.037498906 -0.21904254 -0.17154436 -0.2386157 -0.09561824
0.13713214 -0.22951825 -0.18213388 0.15987459 -0.21340497 0.24267286 0.060583703 0.2395226
0.2675521 -0.0026002626 -0.10381123 -0.10072486 0.1782943 0.14493223 0.13914819 -0.124895625
0.19168356 0.14839505 0.07874036 0.27495196 -0.13238092 0.23640509 0.2234958 -0.12953845
0.17933747 -0.05996976 0.09622769 0.26871142 -0.07993529 0.2313723 0.24380247 -0.08890281
-0.005238028 0.1833877 -0.044915088 0.18987313 0.12742029 -0.05924555 0.2129357 0.23357657
0.24744332 0.0059878635 -0.061614458 0.24329737 0.14317164 -0.0011460666 -0.051791083 0.073973
-0.09087724 0.022301946 -0.21323009 -0.21286105 -0.12850972 -0.19107069 -0.033244465 0.14945324
-0.21509027 0.101422966 0.036231037 -0.22094348 -0.22515206 -0.17908904 -0.15897849 0.17782648
-0.10035652 -0.18009952 -0.020818843 -0.14452036 0.11898929 -0.0069583366 -0.10380119 -0.19594483
-0.03959984 0.09653895 0.2701882 0.14339727 0.24353983 -0.20167455 0.15654212 0.2676961
0.23068903 0.036847726 0.19459112 0.096240945 0.17959984 -0.09770934 0.21600801 -0.1935359
-0.08470762 -0.07053267 -0.1408671 -0.113475084 -0.1965658 -0.09621673 -0.22449186 0.100271456
0.21760447 0.23119642 0.08931708 -0.14651638 0.2522263 0.12844649 0.24308862 -0.18897137
0.15553188 0.13779792 0.042230997 0.1947067 0.2761105 -0.04572244 -0.16956152 -0.11191877
-0.1779361 -0.07813925 -0.20549516 0.09526125 -0.22415592 -0.23544042 0.06623114 -0.2268073
-0.071515284 -0.21132846 -0.18344848 -0.16129453 0.19204144 -0.09267021 -0.09649582 0.11027705
-0.09152158 0.25307536 -0.15074623 -0.17353386 0.07975222 -0.21981958 -0.12049084 -0.06751506
0.2686438 0.06437026 0.17699753 -0.071255 0.15147799 -0.027040934 0.14285076 -0.051451914
-0.17050134 -0.21388671 0.21533976 0.2537475 -0.21270488 -0.06441377 0.17321007 0.22676289
0.104637995 0.17089519 -0.15626517 0.15645546 -0.08348274 0.06179559 -0.16678485 0.17748757
-0.19230007 0.14272568 -0.19989392 -0.015117345 -0.08689586 -0.037742537 -0.061829478 0.1201535
-0.20248497 -0.18184738 0.002337221 0.104254015 -0.088849664 0.24369651 0.16662686 0.25766107
0.23151843 0.18237036 0.058247574 -0.06684716 0.08500249 0.21024719 0.23224175 0.09609086
0.105912074 0.0555605 0.27577642 0.21742845 0.24488443 0.22793658 -0.115245715 0.27193257
0.23003596 -0.14067037 0.00754701 -0.017836235 0.08217556 0.2770993 0.18343522 -0.0059871897

encoder.0.bias f4 [16]
00000000: d5fb 863e a100 54be 82e0 013c 60c9 533e
00000010: 002c 053e 4170 a63d 2982 d43d 5811 c6bc
00000020: ae2c 4b3e 56d8 ffbd 5d59 b4bd 3cf5 61bd
00000030: 7292 043e ec39 953c 790a d23d f4c6 693e
0.26364008 -0.20703365 0.007927062 0.20682287 0.13005066 0.081268795 0.103763886 -0.024178192
0.19841263 -0.12492435 -0.08806107 -0.055165514 0.1294649 0.018216096 0.10255904 0.22829801

encoder.3.weight f4 [32, 16, 4, 4]
00000000: 3c90 903d a602 e8bc 6d82 76bc 243f 743d
00000010: 7037 5d3d f0ef ea3c cd22 0dbd 6ecd 8a3d
00000020: 1e38 8a3c 92c5 403d 4d2d 073d e1af 00bd
00000030: a658 8c3c d05a 7e3d 90a9 8f3d 4ad7 ecbc
00000040: c64c 05bd 684d 943c 2c2c bc3c 17eb f03c
00000050: 88d9 903d f90a bb3b 7dc9 c8bc 9f32 18bd
00000060: db70 633d 640b c1bc a657 02bd b763 8abc
00000070: 821c 7f3b a8bd 91bd fd22 41bd 55f8 c0bc
00000080: 4d1b 003d 0fea a1bc c3a5 213d 68df 5d3d
00000090: 63ff 753d 3554 923d af8b 0fbb 2249 60bd
000000a0: 76d9 8c3d b0c0 f2bb 03f5 a7bc 7ff9 21bd
000000b0: 26ce 21bd 1518 9e3d caec 693b 5892 80bb
000000c0: 6baf 043d f306 973d d218 523d 3106 3239
000000d0: c8b7 35bd e9b1 913c 4095 24bd f879 0d3d
000000e0: 2533 fbbc 816f 24bc fdf1 a53d df32 5fbb
000000f0: 1252 c2bc 480c f43c ecee 203d f1bf ba3c
00000100: 9fad 213b 1a92 933c b8dc 553d 37e4 b03c
00000110: 486f 57bb cec2 563d dc8f bcbb 28e7 74bd
00000120: a594 783d 3693 a4bc a36a 60bd d6e7 ddbc
00000130: 59ab 563d 1a62 8c3d 6565 143d e1a3 3bbd
00000140: 51f8 6c3d d359 37bd 46ab 89bd d0e0 023d
00000150: ad96 7c3b c25f 9a3b 6d7d 9ebd 2c2f 21bd
00000160: 6959 243d 0335 80bd 6af0 6bbd 5571 67bd
00000170: 2924 ec3c bbf4 82bd 35e2 e8bb e850 09bc
00000180: d3fb d03b 174f 40bd 0e27 923d e8a9 9a3d
00000190: b860 8f3d a2f5 a63c 913f 1f3c 23b4 72bc
000001a0: 657b d23c e917 c23c 5306 643c a7b1 723c
000001b0: cb60 fb3a f934 3d3d e31b 38ba 5f91 253d
000001c0: 3782 56bd 4f13 863d fa9b 133d 33bc 333d
000001d0: 4f88 5bbd d88a 383d 1f44 debc 192c 9d3c
000001e0: 6009 313d 4ba4 c83a f1f1 91bc c1dd 95bd
000001f0: 23f9 83bb f8f7 27bb 817a 2fba efdc 5f3d
00000200: 018b 8b3d 5dda c0bc f66e 74bd 5f29 30bd
00000210: b6d1 02bd 3cd9 c53c 34b2 8bba e48f 5a3d
00000220: 7757 0ebd 930c 253d 3e0a d83b bdc0 4b3c
00000230: accb 63bd 3b75 c93c f6b8 e63c 4ca4 5cbd
00000240: b5e3 54bd 02d3 383d ea0b bf3a bbd6 493c
00000250: 516d 9ebc 3d9f d83c 1a5d 2c3b 08e8 a9bc
00000260: 04f2 bc3c dae6 963d cefa 2ebd c127 7f3d
00000270: 08f2 833d b74b 07bb 2c05 ff3b 836f a63c
00000280: 360d acbc 2e30 babc ea7f 873d 88e5 d2bc
00000290: 9cb8 5d3c df66 173d eaa3 ed3c 0ac4 72bc
000002a0: e2b9 3bbb ae54 213d f5d2 5fbd 29c6 353c
000002b0: e237 033d 8b17 fdbc 24f0 3a3c 4619 40bd
000002c0: 7141 513d daa0 873c bac8 723c 02e9 153d
000002d0: 8c22 c43a 3f52 853d c311 4e3d 734e 3a3d
000002e0: b5fa 18bd b5e4 55bd f99b 2bbd 80da 093b
000002f0: 7fcb 813c 0026 913b bed7 ae3c 5aab eebc
00000300: 1de2 6a3c 2803 323d f29a 4a3d 2f76 3fbc
00000310: b0e9 893c 79af 83ba 6afe c839 7513 843d
00000320: c02b 393d 0d2b 94ba b79b 7abd 5a40 223d
00000330: e6ad 5fbd 9a32 62bd 1ce5 17bd ca25 afbc
00000340: fa12 143d b8f1 14bd 6b44 0fbd a3bb 083d
00000350: 58f2 0dbd e64a cdbc 5375 d83b 790d 8f3d
00000360: bd71 b3bc 2e8f 723c f104 563d fa6e 3a3d
00000370: 20c9 503b 1dd5 afbc e620 113c ccad 153d
00000380: 3cf6 633d 640c dabc 6832 e4bc 0773 383d
00000390: 5d93 05bd 6df8 703d f2a8 003d acc1 773d
000003a0: 9c07 2e3d 6c25 493c 79f9 45bd e668 4a3c
000003b0: b4ed 563d 06a0 6cbc d537 2cba 4498 d4bc
000003c0: 31f2 1abd accc 3c3d a1f9 0d3b 633d 843c
000003d0: fafe 63bc d9be 14bd 1cd5 8fbd 6c49 873d
000003e0: 59ef acbc 92ca ba3b 441b bf3c 5ddc 793d
000003f0: aac0 c33c 18a3 9cbc c6b0 da3b c444 cd3b
0.070587605 -0.028321575 -0.015045744 0.059630528 0.054007947 0.028678864 -0.034457017 0.06777464
0.016872462 0.047063418 0.033002187 -0.03141773 0.017132115 0.062098324 0.07014763 -0.028911252
-0.03254392 0.018103316 0.022970282 0.029408975 0.07072741 0.005708095 -0.02451014 -0.03715765
0.05552755 -0.023565002 -0.03182187 -0.01689325 0.0038926904 -0.07116252 -0.047152508 -0.023555914
0.031276036 -0.019764928 0.039464723 0.054168135 0.06005801 0.071449675 -0.0021903326 -0.054757245
0.06877415 -0.007408224 -0.020502573 -0.03954458 -0.03950324 0.07719437 0.0035694116 -0.0039236955
0.032393854 0.07374372 0.0512932 0.0001697771 -0.04436472 0.01778503 -0.0401814 0.034540147
-0.030664036 -0.01003635 0.08102796 -0.003405742 -0.023720775 0.029791012 0.039290354 0.022796603
0.0024670137 0.018014003 0.052212447 0.021593196 -0.0032872725 0.052431874 -0.005754454 -0.05979076
0.060688633 -0.020089727 -0.054789197 -0.027088087 0.052409504 0.06854649 0.03622951 -0.045810584
0.057854 -0.044763397 -0.06722121 0.03195268 0.0038541958 0.0047111223 -0.07738767 -0.039351627
0.04012433 -0.06260111 -0.057602324 -0.056504566 0.028825836 -0.06394335 -0.007107044 -0.008381106
0.006377676 -0.046950426 0.07136355 0.07551938 0.070008695 0.020380799 0.009719745 -0.014813456
0.025693605 0.023693042 0.013917523 0.014812863 0.0019178627 0.046193097 -0.00070231984 0.04042184
-0.052370276 0.065466516 0.036037423 0.043880653 -0.05359679 0.045054287 -0.027132092 0.019186066
0.04322183 0.0015307752 -0.017815562 -0.07317687 -0.004027502 -0.0025629979 -0.0006693975 0.054654058
0.06813622 -0.023541624 -0.059676133 -0.043008205 -0.031938277 0.024151437 -0.0010657967 0.05335988
-0.03475138 0.040295195 0.006593018 0.012436089 -0.05561416 0.024592033 0.028164368 -0.053867623
-0.05197497 0.045123108 0.0014575694 0.012319262 -0.019339235 0.026443118 0.002630061 -0.020740524
0.02306462 0.0736825 -0.042719655 0.06229377 0.06442648 -0.0020644495 0.007782599 0.020316845
-0.021002393 -0.022728052 0.066161945 -0.025744215 0.013532784 0.03696334 0.029008824 -0.014817247
-0.002864473 0.039387397 -0.054644544 0.011094608 0.032035716 -0.030895015 0.011409793 -0.046899103
0.0510878 0.016556192 0.014818365 0.036599167 0.0014963909 0.06509828 0.050309908 0.04548497
-0.037348468 -0.052220065 -0.041896794 0.0021034777 0.015844105 0.004429579 0.021343108 -0.029134441
0.014336136 0.04346004 0.049464174 -0.011685892 0.016835064 -0.0010046802 0.00038336526 0.06449024
0.04520774 -0.0011304334 -0.061183657 0.03961215 -0.0546092 -0.05522404 -0.03708373 -0.021380324
0.03615091 -0.036363333 -0.034977358 0.03338207 -0.034654945 -0.025060128 0.006605783 0.069849916
-0.02190482 0.0148046445 0.052250806 0.04551599 0.003185816 -0.021463925 0.008857941 0.0365427
0.05565475 -0.026617236 -0.027856067 0.045031574 -0.03261124 0.058830667 0.03141112 0.060487434
0.042487726 0.0122769885 -0.04833362 0.012354111 0.052472785 -0.014442449 -0.0006569599 -0.025951512
-0.037828628 0.046093628 0.0021663683 0.016142553 -0.013915772 -0.03631482 -0.07023069 0.06605801
-0.021110224 0.005700418 0.023328431 0.06100117 0.02389558 -0.019120738 0.006673905 0.006264301

encoder.3.bias f4 [32]
00000000: 9172 f53b 78ae a6bc 8c42 e9bc f2d2 3bbb
00000010: 7a8a 033d 725d 473d ac76 77bc cff8 d8bc
00000020: 2606 2abd 1193 903d 0b8b 6a3d 0703 553c
00000030: 58e2 f93c 1bc2 38bd ed19 5fbc 2864 ae3c
00000040: 56d4 263d 545b 853d 28c9 a23b 52b9 ff3b
00000050: 5e41 7a3d 78cb 08bd 5d77 033b 55af 15bd
00000060: e9eb 1c3d 1b35 1e3d 1845 0d3d 622f 133d
00000070: b023 bf3c d831 293d ce95 e23b 0f85 b93c
0.007490464 -0.020346865 -0.028474115 -0.0028659669 0.032114483 0.0486731 -0.015103977 -0.026485829
-0.04150977 0.07059301 0.057261508 0.01300121 0.030503437 -0.04510699 -0.013617021 0.021287993
0.040729843 0.0651156 0.0049678273 0.0078040743 0.061097495 -0.033397168 0.002006016 -0.036544163
0.03831092 0.038624864 0.03448972 0.03593386 0.023332447 0.0413073 0.0069148308 0.022646455

linear.0.weight f4 [64, 2304]
00000000: b53a acbc 8c5b 323c 8ae4 9dbb 74ca 9cbc
00000010: a65d 72ba 7ede afb9 1762 453b 1020 073c
00000020: 98c1 be3c 5398 30bb a4a5 9bbb f097 3fbc
00000030: 9f0d 8ebc ea2e ad3c 1137 813c a71a 883c
00000040: a3a7 903b 1ca8 76bc 8506 6cbc 0932 07bc
00000050: e162 41bc a9b7 a33c 4de5 123c 4deb 1fbc
00000060: a71c 803c 9217 1abc 8460 423c 0f2f 9cbc
00000070: 6e51 abbb 1b4a 653c e6d3 893c 16b1 b9bc
00000080: e037 abbb 594c d23a f4e0 11bb 8ab4 1dbc
00000090: 5ac4 aebc c0c5 193a bcdb 8cbc af80 823c
000000a0: 80fd bd3c 43fa 643b 553c d83b bf5c c33c
000000b0: 1f2a afbc c0de 5bbc d95c 6fbc 7e38 8b3a
000000c0: fbea 3fbb 97ec b0bb 3ce6 c9bb c0e2 78bc
000000d0: 000a 0d3c 5ced 3ebc 25f4 bf39 56dc c9bb
000000e0: 8867 013b cf27 003c a2b4 f43b 4367 55bc
000000f0: 2484 f43c 18e9 6dbc 0ec0 013d d9ae 7abc
00000100: 53ad 0cbc 8387 7f3a af53 20bc 1412 30bc
00000110: feaf 8bbc 6f9a 80bc 408f 563c ac9e 153b
00000120: ddff e23b 5fdd 72bc 16c7 7fbc 9c3a 0abc
00000130: 5fdc 1e3c d773 e1bb 807f d73c ceea a8bc
00000140: 344c f7bb 086d 42bc 9621 01bc 413b 92bc
00000150: 9acd b53c d8ce 4ebc 80c2 19bc 5c53 8d3c
00000160: 7825 2a3b 0838 f53a 256e 803b 2cef cc3b
00000170: 4931 c1bb f3ea 4e3b 47a6 973b 7fae 0b3c
00000180: fcb4 a9bc e789 5cbc 7ed2 943c d500 553c
00000190: c99c f2bb 96d3 aa3b 0d0c 12bc f392 53bc
000001a0: ea79 c5bc bfec 4c3c 6a8f 87bb 6fce 67bb
000001b0: c1af af3b f47e cebb db33 c5bb 9571 46bc
000001c0: ba7e ad3c c44d 61bb f652 b73c 9df4 0f3b
000001d0: d10c 4dbc 0310 b03c af25 2a3c 0ac9 e0ba
000001e0: 87e3 7539 7474 a8bb 5d07 8a3c a379 96bc
000001f0: f63e fdb9 c19a 7c3c f08b 10bc 239b 03bc
00000200: c41e 0abc 7c9c ca3c 8dc2 adbc c2a5 34bb
00000210: 397f 6bbb ea2d 633c 7252 a53c a70a bb3b
00000220: b2ae 90bb 6d57 0c3c dc0c d53b 1e62 4bbb
00000230: c8b0 003c adf8 a63c 9a0f a33c 1d3d b43b
00000240: 1a5e 86bc 5681 cbbb 45dd 89bc 7a7a 93bc
00000250: 7eb4 993c 6e2e 3b39 a453 233a fecd 1abb
00000260: 8df0 28bc 7325 85bc 85c3 d63c f98b 96bc
00000270: a8da 953b 552f 45bb 0b67 40bc 2dfd 803c
00000280: f714 143a 1ddb 9a3c e101 093c 6308 39bb
00000290: 8f09 e03a d527 bb3c dce0 babc 18ee 41bc
000002a0: ad35 30bc 2978 2dbc 2e90 57bc f1ca 563c
000002b0: b2c9 8f3c 01f4 5b3c d92e 39bc 6a13 673c
000002c0: d1c0 79bc 73eb 85bc ddfe 4cbc 6fc3 eb3b
000002d0: 013a 89bb d3e6 3ebc fabf 4fbc 84e7 4cbb
000002e0: 70c1 96ba b206 8b3b 6ef2 f5bb 8443 07bc
000002f0: 25fa a43b 7ac3 c9bb 962d 3c3c 3517 99bc
00000300: aed1 30bc d47c 2e3c bbea 2ebc abc7 80bc
00000310: 0a64 7f3c aa87 c83c ceed 9a3c 3012 0dbc
00000320: 3abf 12bc 8a52 7e3b 11f0 603c 709f a5bc
00000330: 1551 3ebb 5a12 c63c bd7e de3b 3df8 2fbc
00000340: 9912 71b9 e02f c73b 72fb 9fbc bc8a bc3c
00000350: 1de3 d5bc 9efa 0c3c 6a32 533c 6021 903b
00000360: feb6 223a 8530 4a3c 7961 713c 4dea 173c
00000370: 7265 a0bb 38b5 a03c f4d3 0bbb 4ea8 a8bc
00000380: 22d1 58bb 2d36 16bc db80 8d3b c1cd b6ba
00000390: 0fba 1cbc f790 c93a da63 deba ba79 9a3c
000003a0: 62b9 4d3c 239c 2e3c eea1 843c d798 50bc
000003b0: e20c 6ebc ac34 ef3c 8e9c 1e3c 9572 b03b
000003c0: 713b 38bc ea8e 9b3c 4756 dfbc 1117 c5b9
000003d0: 170a 343c ab35 adbc 1c61 8fbc e034 87bc
000003e0: bfe8 81bb 12e2 a8bc 8ecd b73c 7105 97bc
000003f0: 1a46 093c 7b1e 113c 0633 6abc a2ec 893c
-0.021024087 0.010886084 -0.0048185037 -0.019139506 -0.0009245522 -0.0003354437 0.003011828 0.00824739
0.023285672 -0.002694626 -0.0047499705 -0.01169394 -0.01734048 0.021140534 0.015773328 0.016614271
0.004414515 -0.015054729 -0.014405851 -0.008251675 -0.01180336 0.019985037 0.008965802 -0.00976069
0.015638663 -0.009405034 0.011863831 -0.019065408 -0.005228213 0.013994719 0.016824674 -0.022667449
-0.0052251667 0.0016044482 -0.0022259327 -0.009625563 -0.021333862 0.0005865954 -0.017194621 0.015930502
0.023192167 0.0034939207 0.006598989 0.023847936 -0.02138239 -0.013419807 -0.014609539 0.0010621694
-0.0029284346 -0.0053992975 -0.0061614793 -0.01519078 0.008608341 -0.011653271 0.0003661226 -0.0061602993
0.0019745547 0.007821991 0.007467822 -0.013025108 0.029848166 -0.014520906 0.0316773 -0.015300476
-0.008586246 0.0009747671 -0.009785577 -0.010746498 -0.017051693 -0.01569864 0.013095677 0.0022830172
0.006927474 -0.014823287 -0.015611431 -0.008436825 0.009696095 -0.0068802643 0.026305914 -0.020619776
-0.007546926 -0.011866815 -0.007881543 -0.01785052 0.022192765 -0.012622558 -0.009384751 0.017251663
0.0025962275 0.0018708715 0.0039193803 0.0062540974 -0.005895768 0.0031573146 0.004627976 0.00852549
-0.020716183 -0.013460613 0.018166777 0.013000687 -0.007403944 0.0052132113 -0.008914006 -0.012913453
-0.024105985 0.012507617 -0.0041369693 -0.0035370847 0.0053615277 -0.006301755 -0.0060181445 -0.012112041
0.021178592 -0.0034378627 0.022378426 0.002196587 -0.012515263 0.02149201 0.010384961 -0.0017149758
0.00023449781 -0.0051408354 0.016849214 -0.018368548 -0.0004830283 0.015417756 -0.008822426 -0.008032593
-0.008430187 0.02473282 -0.021210933 -0.002756462 -0.0035933985 0.013865927 0.020180915 0.005708057
-0.0044153566 0.008565766 0.006501777 -0.0031033824 0.007854648 0.02038225 0.0199049 0.0055004493
-0.016402293 -0.0062104864 -0.016829142 -0.018002737 0.018762823 0.00017851006 0.000623042 -0.0023621316
-0.010311258 -0.016253209 0.026216278 -0.018377291 0.004573185 -0.0030088027 -0.011743317 0.015745724
0.0005648876 0.01890331 0.008362264 -0.0028233759 0.0017092692 0.022846142 -0.0228123 -0.011836551
-0.010754985 -0.01058773 -0.013156934 0.013109908 0.01755223 0.013424874 -0.011302673 0.01410375
-0.015243725 -0.016347622 -0.012511936 0.0071949284 -0.004187823 -0.0116517125 -0.012680048 -0.0031265924
-0.0011501741 0.0042427415 -0.0075057065 -0.008255843 0.0050347024 -0.006157336 0.011485478 -0.018687824
-0.010792179 0.0106498785 -0.010676081 -0.01572021 0.015587816 0.024478752 0.018912222 -0.008610293
-0.008956725 0.0038806521 0.013729111 -0.020217627 -0.0029040028 0.024178673 0.0067900107 -0.010740337
-0.00022990479 0.006078705 -0.019529078 0.023015372 -0.026109273 0.008604674 0.012890438 0.00439851
0.00062070775 0.0123406695 0.014732712 0.00927217 -0.0048949057 0.019617662 -0.002133605 -0.020588066
-0.0033083637 -0.00916819 0.0043183393 -0.0013946817 -0.009565844 0.0015378286 -0.0016967014 0.018856872
0.012556406 0.010657343 0.016190495 -0.012731752 -0.014529439 0.02919992 0.00968088 0.005384753
-0.011244641 0.018989045 -0.02726282 -0.00037591954 0.010988734 -0.021143755 -0.01750236 -0.016504705
-0.003964513 -0.020615611 0.022436883 -0.018435212 0.00837853 0.008857365 -0.0142943915 0.016836468

linear.0.bias f4 [64]
00000000: c695 58bc 2623 00bc a2b2 23bb 26e3 50bc
00000010: 076b 98bc 3d9d 6cbc bc94 363c ec50 97bc
00000020: 9e87 d33b 10fc 80bc 667e db3a ebcc dfbb
00000030: 08bf 923c 60cb 153c dda1 73bc ee0a 53bc
00000040: a5ab 92bc ce70 a93c 571c 0f3c aff3 9fbc
00000050: 0f10 563c b27b 593c 14a4 99bc a0bf 6bbc
00000060: 0a3c 9c3c 6b61 a5bc 9792 aa3b 3c64 903b
00000070: 2ddd 143b a05d 9d3c a979 16bc efbd 393c
00000080: fb57 39bb 742e 08bc cab1 26bb 003f 47bc
00000090: e904 303b a350 363c 265f 963c 9aa7 8d3c
000000a0: 8635 a43c a8d1 cfb9 5dfc 003c 4ee4 04bb
000000b0: 1c9c 86bc 9cf1 84bc 183a 8d3c 046a 623c
000000c0: 41bf 1c3b de69 75ba a72f 66bc 0bed 8dbc
000000d0: 0159 7e3b 59b4 b8ba 783e 85bc 6e14 f2bb
000000e0: 047f e0bb c2bc 72bc d5d0 1cbc be72 42bc
000000f0: d3ae 693c 9cb7 12bc efcc 09bc 4fce 51bc
-0.0132193025 -0.00782088 -0.00249783 -0.012749469 -0.018605722 -0.014441785 0.0111438595 -0.018471204
0.006455376 -0.015745193 0.0016746044 -0.006829848 0.017913356 0.009142727 -0.014870134 -0.012881024
-0.017904112 0.020683672 0.008734784 -0.019525377 0.013065352 0.01327412 -0.018754996 -0.014388949
0.019071598 -0.020188054 0.005205463 0.00440648 0.002271484 0.019209683 -0.0091842795 0.011336788
-0.00282812 -0.008311857 -0.002543556 -0.012161016 0.0026858395 0.011127624 0.018355917 0.017291833
0.020045053 -0.00039638323 0.007872668 -0.0020277682 -0.01643186 -0.01622849 0.017239615 0.013819221
0.0023917707 -0.0009361784 -0.014049447 -0.017324945 0.0038810375 -0.0014091834 -0.016265139 -0.0073876893
-0.006851079 -0.014815511 -0.009571274 -0.011868177 0.014262873 -0.008954909 -0.008410676 -0.012805535
